…
                    name=proprio
                    shape=[65]
                    modality=low_dim
                    randomizer=None
                    net=None
                    sharing_from=None
                )
                output_shape=[65]
            )
        )
  
        transformer=GPT_Backbone(
          (activation): GELU(approximate='none')
          (nets): ModuleDict(
            (transformer): Sequential(
              (0): SelfAttentionBlock(
                (nets): ModuleDict(
                  (attention): CausalSelfAttention(
                    (nets): ModuleDict(
                      (qkv): Linear(in_features=512, out_features=1536, bias=False)
                      (attn_dropout): Dropout(p=0.1, inplace=False)
                      (output_dropout): Dropout(p=0.1, inplace=False)
                      (output): Linear(in_features=512, out_features=512, bias=True)
                    )
                  )
                  (mlp): Sequential(
                    (0): Linear(in_features=512, out_features=2048, bias=True)
                    (1): GELU(approximate='none')
                    (2): Linear(in_features=2048, out_features=512, bias=True)
                    (3): Dropout(p=0.1, inplace=False)
                  )
                  (ln1): LayerNorm((512,), eps=1e-05, elementwise_affine=True)
                  (ln2): LayerNorm((512,), eps=1e-05, elementwise_affine=True)
                )
              )
              (1): SelfAttentionBlock(
                (nets): ModuleDict(
                  (attention): CausalSelfAttention(
                    (nets): ModuleDict(
                      (qkv): Linear(in_features=512, out_features=1536, bias=False)
                      (attn_dropout): Dropout(p=0.1, inplace=False)
                      (output_dropout): Dropout(p=0.1, inplace=False)
                      (output): Linear(in_features=512, out_features=512, bias=True)
                    )
                  )
                  (mlp): Sequential(
                    (0): Linear(in_features=512, out_features=2048, bias=True)
                    (1): GELU(approximate='none')
                    (2): Linear(in_features=2048, out_features=512, bias=True)
                    (3): Dropout(p=0.1, inplace=False)
                  )
                  (ln1): LayerNorm((512,), eps=1e-05, elementwise_affine=True)
                  (ln2): LayerNorm((512,), eps=1e-05, elementwise_affine=True)
                )
              )
              (2): SelfAttentionBlock(
                (nets): ModuleDict(
                  (attention): CausalSelfAttention(
                    (nets): ModuleDict(
                      (qkv): Linear(in_features=512, out_features=1536, bias=False)
                      (attn_dropout): Dropout(p=0.1, inplace=False)
                      (output_dropout): Dropout(p=0.1, inplace=False)
                      (output): Linear(in_features=512, out_features=512, bias=True)
                    )
                  )
                  (mlp): Sequential(
                    (0): Linear(in_features=512, out_features=2048, bias=True)
                    (1): GELU(approximate='none')
                    (2): Linear(in_features=2048, out_features=512, bias=True)
                    (3): Dropout(p=0.1, inplace=False)
                  )
                  (ln1): LayerNorm((512,), eps=1e-05, elementwise_affine=True)
                  (ln2): LayerNorm((512,), eps=1e-05, elementwise_affine=True)
                )
              )
              (3): SelfAttentionBlock(
                (nets): ModuleDict(
                  (attention): CausalSelfAttention(
                    (nets): ModuleDict(
                      (qkv): Linear(in_features=512, out_features=1536, bias=False)
                      (attn_dropout): Dropout(p=0.1, inplace=False)
                      (output_dropout): Dropout(p=0.1, inplace=False)
                      (output): Linear(in_features=512, out_features=512, bias=True)
                    )
                  )
                  (mlp): Sequential(
                    (0): Linear(in_features=512, out_features=2048, bias=True)
                    (1): GELU(approximate='none')
                    (2): Linear(in_features=2048, out_features=512, bias=True)
                    (3): Dropout(p=0.1, inplace=False)
                  )
                  (ln1): LayerNorm((512,), eps=1e-05, elementwise_affine=True)
                  (ln2): LayerNorm((512,), eps=1e-05, elementwise_affine=True)
                )
              )
              (4): SelfAttentionBlock(
                (nets): ModuleDict(
                  (attention): CausalSelfAttention(
                    (nets): ModuleDict(
                      (qkv): Linear(in_features=512, out_features=1536, bias=False)
                      (attn_dropout): Dropout(p=0.1, inplace=False)
                      (output_dropout): Dropout(p=0.1, inplace=False)
                      (output): Linear(in_features=512, out_features=512, bias=True)
                    )
                  )
                  (mlp): Sequential(
                    (0): Linear(in_features=512, out_features=2048, bias=True)
                    (1): GELU(approximate='none')
                    (2): Linear(in_features=2048, out_features=512, bias=True)
                    (3): Dropout(p=0.1, inplace=False)
                  )
                  (ln1): LayerNorm((512,), eps=1e-05, elementwise_affine=True)
                  (ln2): LayerNorm((512,), eps=1e-05, elementwise_affine=True)
                )
              )
              (5): SelfAttentionBlock(
                (nets): ModuleDict(
                  (attention): CausalSelfAttention(
                    (nets): ModuleDict(
                      (qkv): Linear(in_features=512, out_features=1536, bias=False)
                      (attn_dropout): Dropout(p=0.1, inplace=False)
                      (output_dropout): Dropout(p=0.1, inplace=False)
                      (output): Linear(in_features=512, out_features=512, bias=True)
                    )
                  )
                  (mlp): Sequential(
                    (0): Linear(in_features=512, out_features=2048, bias=True)
                    (1): GELU(approximate='none')
                    (2): Linear(in_features=2048, out_features=512, bias=True)
                    (3): Dropout(p=0.1, inplace=False)
                  )
                  (ln1): LayerNorm((512,), eps=1e-05, elementwise_affine=True)
                  (ln2): LayerNorm((512,), eps=1e-05, elementwise_affine=True)
                )
              )
            )
            (output_ln): LayerNorm((512,), eps=1e-05, elementwise_affine=True)
          )
        )
  
        decoder=ObservationDecoder(
            Key(
                name=action
                shape=(20,)
                modality=low_dim
                net=(Linear(in_features=512, out_features=20, bias=True))
            )
        )
    )
  )
)

SequenceDataset: loading dataset into memory...
  0%|          | 0/100 [00:00<?, ?it/s]  5%|5         | 5/100 [00:00<00:01, 49.33it/s] 55%|#####5    | 55/100 [00:00<00:00, 310.12it/s]100%|##########| 100/100 [00:00<00:00, 351.15it/s]
…
